…
 'separate_val_path': 'Data/Multitask_data/All_datasets/Splits/Predict_carbonate_all_with_all_data/valid.csv',
 'show_individual_scores': False,
 'split_sizes': [0.675, 0.075, 0.25],
 'split_type': 'random',
 'test': False,
 'test_fold_index': None,
 'undirected': False,
 'use_compound_names': False,
 'use_input_features': True,
 'val_fold_index': None,
 'warmup_epochs': 2.0}
Loading data
Number of tasks = 2
Splitting data with seed 5
Total size = 3,609 | train size = 3,609 | val size = 527 | test size = 720
Fitting scaler
Building model 0
MoleculeModel(
  (encoder): MPN(
    (encoder): MPNEncoder(
      (dropout_layer): Dropout(p=0.0, inplace=False)
      (act_func): ReLU()
      (W_i): Linear(in_features=147, out_features=300, bias=False)
      (W_h): Linear(in_features=300, out_features=300, bias=False)
      (W_o): Linear(in_features=433, out_features=300, bias=True)
    )
  )
  (ffn): Sequential(
    (0): Dropout(p=0.0, inplace=False)
    (1): Linear(in_features=324, out_features=300, bias=True)
    (2): ReLU()
    (3): Dropout(p=0.0, inplace=False)
    (4): Linear(in_features=300, out_features=300, bias=True)
    (5): ReLU()
    (6): Dropout(p=0.0, inplace=False)
    (7): Linear(in_features=300, out_features=2, bias=True)
  )
)
Number of parameters = 452,702
Epoch 0
Loss = 1.7080e-02, PNorm = 38.3272, GNorm = 1.6648, lr_0 = 1.6875e-04
Loss = 1.9524e-02, PNorm = 38.3332, GNorm = 2.4549, lr_0 = 2.3125e-04
Loss = 1.4085e-02, PNorm = 38.3411, GNorm = 4.1349, lr_0 = 2.9375e-04
Loss = 1.5541e-02, PNorm = 38.3477, GNorm = 2.6072, lr_0 = 3.5625e-04
Loss = 1.3586e-02, PNorm = 38.3561, GNorm = 5.4601, lr_0 = 4.1875e-04
…
 'separate_val_path': 'Data/Multitask_data/All_datasets/Splits/Predict_whitehead_amines_with_all_data/valid.csv',
 'show_individual_scores': False,
 'split_sizes': [0.675, 0.075, 0.25],
 'split_type': 'random',
 'test': False,
 'test_fold_index': None,
 'undirected': False,
 'use_compound_names': False,
 'use_input_features': True,
 'val_fold_index': None,
 'warmup_epochs': 2.0}
Loading data
Number of tasks = 1
Splitting data with seed 5
Total size = 4,344 | train size = 4,344 | val size = 264 | test size = 248
Fitting scaler
Building model 0
MoleculeModel(
  (encoder): MPN(
    (encoder): MPNEncoder(
      (dropout_layer): Dropout(p=0.0, inplace=False)
      (act_func): ReLU()
      (W_i): Linear(in_features=147, out_features=300, bias=False)
      (W_h): Linear(in_features=300, out_features=300, bias=False)
      (W_o): Linear(in_features=433, out_features=300, bias=True)
    )
  )
  (ffn): Sequential(
    (0): Dropout(p=0.0, inplace=False)
    (1): Linear(in_features=324, out_features=300, bias=True)
    (2): ReLU()
    (3): Dropout(p=0.0, inplace=False)
    (4): Linear(in_features=300, out_features=300, bias=True)
    (5): ReLU()
    (6): Dropout(p=0.0, inplace=False)
    (7): Linear(in_features=300, out_features=1, bias=True)
  )
)
Number of parameters = 452,401
Epoch 0
Loss = 1.1981e-02, PNorm = 38.3064, GNorm = 2.4320, lr_0 = 1.5756e-04
Loss = 1.6737e-02, PNorm = 38.3088, GNorm = 0.8112, lr_0 = 2.0988e-04
Loss = 1.5028e-02, PNorm = 38.3126, GNorm = 9.2311, lr_0 = 2.6221e-04
Loss = 1.4813e-02, PNorm = 38.3164, GNorm = 3.8360, lr_0 = 3.1453e-04
Loss = 1.8109e-02, PNorm = 38.3237, GNorm = 11.8150, lr_0 = 3.6686e-04
…
