…
 'separate_val_path': 'Data/Multitask_data/All_datasets/Splits/RM_carbonate_and_LM_predict/valid.csv',
 'show_individual_scores': False,
 'split_sizes': [0.675, 0.075, 0.25],
 'split_type': 'random',
 'test': False,
 'test_fold_index': None,
 'undirected': False,
 'use_compound_names': False,
 'use_input_features': True,
 'val_fold_index': None,
 'warmup_epochs': 2.0}
Loading data
Number of tasks = 1
Splitting data with seed 5
Total size = 4,141 | train size = 4,141 | val size = 261 | test size = 3,513
Fitting scaler
Building model 0
MoleculeModel(
  (encoder): MPN(
    (encoder): MPNEncoder(
      (dropout_layer): Dropout(p=0.0, inplace=False)
      (act_func): ReLU()
      (W_i): Linear(in_features=147, out_features=300, bias=False)
      (W_h): Linear(in_features=300, out_features=300, bias=False)
      (W_o): Linear(in_features=433, out_features=300, bias=True)
    )
  )
  (ffn): Sequential(
    (0): Dropout(p=0.0, inplace=False)
    (1): Linear(in_features=325, out_features=300, bias=True)
    (2): ReLU()
    (3): Dropout(p=0.0, inplace=False)
    (4): Linear(in_features=300, out_features=300, bias=True)
    (5): ReLU()
    (6): Dropout(p=0.0, inplace=False)
    (7): Linear(in_features=300, out_features=1, bias=True)
  )
)
Number of parameters = 452,701
Epoch 0
Loss = 2.1043e-02, PNorm = 38.3060, GNorm = 2.4306, lr_0 = 1.6037e-04
Loss = 2.1364e-02, PNorm = 38.3110, GNorm = 2.6999, lr_0 = 2.1524e-04
Loss = 1.7415e-02, PNorm = 38.3179, GNorm = 4.5366, lr_0 = 2.7012e-04
Loss = 1.6218e-02, PNorm = 38.3239, GNorm = 2.6866, lr_0 = 3.2500e-04
Loss = 1.5389e-02, PNorm = 38.3299, GNorm = 2.8751, lr_0 = 3.7988e-04
…
 'separate_val_path': 'Data/Multitask_data/All_datasets/Splits/RM_carbonate_and_LM_predict/valid.csv',
 'show_individual_scores': False,
 'split_sizes': [0.675, 0.075, 0.25],
 'split_type': 'random',
 'test': False,
 'test_fold_index': None,
 'undirected': False,
 'use_compound_names': False,
 'use_input_features': True,
 'val_fold_index': None,
 'warmup_epochs': 2.0}
Loading data
Number of tasks = 2
Splitting data with seed 5
Total size = 3,868 | train size = 3,868 | val size = 556 | test size = 432
Fitting scaler
Building model 0
MoleculeModel(
  (encoder): MPN(
    (encoder): MPNEncoder(
      (dropout_layer): Dropout(p=0.0, inplace=False)
      (act_func): ReLU()
      (W_i): Linear(in_features=147, out_features=300, bias=False)
      (W_h): Linear(in_features=300, out_features=300, bias=False)
      (W_o): Linear(in_features=433, out_features=300, bias=True)
    )
  )
  (ffn): Sequential(
    (0): Dropout(p=0.0, inplace=False)
    (1): Linear(in_features=325, out_features=300, bias=True)
    (2): ReLU()
    (3): Dropout(p=0.0, inplace=False)
    (4): Linear(in_features=300, out_features=300, bias=True)
    (5): ReLU()
    (6): Dropout(p=0.0, inplace=False)
    (7): Linear(in_features=300, out_features=2, bias=True)
  )
)
Number of parameters = 453,002
Epoch 0
Loss = 1.8830e-02, PNorm = 38.3563, GNorm = 2.2904, lr_0 = 1.6429e-04
Loss = 1.7022e-02, PNorm = 38.3610, GNorm = 2.3194, lr_0 = 2.2273e-04
Loss = 1.7393e-02, PNorm = 38.3666, GNorm = 3.4296, lr_0 = 2.8117e-04
Loss = 1.6591e-02, PNorm = 38.3741, GNorm = 1.1597, lr_0 = 3.3961e-04
Loss = 1.5126e-02, PNorm = 38.3826, GNorm = 3.4442, lr_0 = 3.9805e-04
…
