…
 'test_fold_index': None,
 'undirected': False,
 'use_compound_names': False,
 'use_input_features': True,
 'val_fold_index': None,
 'warmup_epochs': 2.0}
Loading data
Loading data
Number of tasks = 1
Number of tasks = 1
Splitting data with seed 5
Splitting data with seed 5
Total size = 84 | train size = 84 | val size = 44 | test size = 56
Total size = 84 | train size = 84 | val size = 44 | test size = 56
Fitting scaler
Fitting scaler
Building model 0
Building model 0
MoleculeModel(
  (encoder): MPN(
    (encoder): MPNEncoder(
      (dropout_layer): Dropout(p=0.2, inplace=False)
      (act_func): ReLU()
      (W_i): Linear(in_features=147, out_features=1200, bias=False)
      (W_h): Linear(in_features=1200, out_features=1200, bias=False)
      (W_o): Linear(in_features=1333, out_features=1200, bias=True)
    )
  )
  (ffn): Sequential(
    (0): Dropout(p=0.2, inplace=False)
    (1): Linear(in_features=1243, out_features=300, bias=True)
    (2): ReLU()
    (3): Dropout(p=0.2, inplace=False)
    (4): Linear(in_features=300, out_features=300, bias=True)
    (5): ReLU()
    (6): Dropout(p=0.2, inplace=False)
    (7): Linear(in_features=300, out_features=1, bias=True)
  )
)
MoleculeModel(
  (encoder): MPN(
    (encoder): MPNEncoder(
      (dropout_layer): Dropout(p=0.2, inplace=False)
      (act_func): ReLU()
      (W_i): Linear(in_features=147, out_features=1200, bias=False)
      (W_h): Linear(in_features=1200, out_features=1200, bias=False)
      (W_o): Linear(in_features=1333, out_features=1200, bias=True)
    )
  )
  (ffn): Sequential(
    (0): Dropout(p=0.2, inplace=False)
    (1): Linear(in_features=1243, out_features=300, bias=True)
    (2): ReLU()
    (3): Dropout(p=0.2, inplace=False)
    (4): Linear(in_features=300, out_features=300, bias=True)
    (5): ReLU()
    (6): Dropout(p=0.2, inplace=False)
    (7): Linear(in_features=300, out_features=1, bias=True)
  )
)
Number of parameters = 3,681,001
Number of parameters = 3,681,001
Epoch 0
Epoch 0
Validation rmse = 3.078190
Validation rmse = 3.078190
Epoch 1
Epoch 1
Validation rmse = 5.046990
Validation rmse = 5.046990
Epoch 2
Epoch 2
Validation rmse = 3.208069
Validation rmse = 3.208069
Epoch 3
Epoch 3
Validation rmse = 3.077664
Validation rmse = 3.077664
Epoch 4
…
 'test_fold_index': None,
 'undirected': False,
 'use_compound_names': False,
 'use_input_features': True,
 'val_fold_index': None,
 'warmup_epochs': 2.0}
Loading data
Loading data
Number of tasks = 1
Number of tasks = 1
Splitting data with seed 5
Splitting data with seed 5
Total size = 84 | train size = 84 | val size = 44 | test size = 56
Total size = 84 | train size = 84 | val size = 44 | test size = 56
Fitting scaler
Fitting scaler
Building model 0
Building model 0
MoleculeModel(
  (encoder): MPN(
    (encoder): MPNEncoder(
      (dropout_layer): Dropout(p=0.2, inplace=False)
      (act_func): ReLU()
      (W_i): Linear(in_features=147, out_features=1400, bias=False)
      (W_h): Linear(in_features=1400, out_features=1400, bias=False)
      (W_o): Linear(in_features=1533, out_features=1400, bias=True)
    )
  )
  (ffn): Sequential(
    (0): Dropout(p=0.2, inplace=False)
    (1): Linear(in_features=1443, out_features=300, bias=True)
    (2): ReLU()
    (3): Dropout(p=0.2, inplace=False)
    (4): Linear(in_features=300, out_features=1, bias=True)
  )
)
MoleculeModel(
  (encoder): MPN(
    (encoder): MPNEncoder(
      (dropout_layer): Dropout(p=0.2, inplace=False)
      (act_func): ReLU()
      (W_i): Linear(in_features=147, out_features=1400, bias=False)
      (W_h): Linear(in_features=1400, out_features=1400, bias=False)
      (W_o): Linear(in_features=1533, out_features=1400, bias=True)
    )
  )
  (ffn): Sequential(
    (0): Dropout(p=0.2, inplace=False)
    (1): Linear(in_features=1443, out_features=300, bias=True)
    (2): ReLU()
    (3): Dropout(p=0.2, inplace=False)
    (4): Linear(in_features=300, out_features=1, bias=True)
  )
)
Number of parameters = 4,746,901
Number of parameters = 4,746,901
Epoch 0
Epoch 0
Validation rmse = 5.969065
Validation rmse = 5.969065
Epoch 1
Epoch 1
Validation rmse = 3.099734
Validation rmse = 3.099734
Epoch 2
Epoch 2
Validation rmse = 3.067686
Validation rmse = 3.067686
Epoch 3
Epoch 3
Validation rmse = 3.096024
Validation rmse = 3.096024
Epoch 4
…
 'undirected': False,
 'use_compound_names': False,
 'use_input_features': True,
 'val_fold_index': None,
 'warmup_epochs': 2.0}
Loading data
Loading data
Number of tasks = 1
Number of tasks = 1
Splitting data with seed 5
Splitting data with seed 5
Total size = 84 | train size = 84 | val size = 44 | test size = 56
Total size = 84 | train size = 84 | val size = 44 | test size = 56
Fitting scaler
Fitting scaler
Building model 0
Building model 0
MoleculeModel(
  (encoder): MPN(
    (encoder): MPNEncoder(
      (dropout_layer): Dropout(p=0.35000000000000003, inplace=False)
      (act_func): ReLU()
      (W_i): Linear(in_features=147, out_features=1100, bias=False)
      (W_h): Linear(in_features=1100, out_features=1100, bias=False)
      (W_o): Linear(in_features=1233, out_features=1100, bias=True)
    )
  )
  (ffn): Sequential(
    (0): Dropout(p=0.35000000000000003, inplace=False)
    (1): Linear(in_features=1143, out_features=300, bias=True)
    (2): ReLU()
    (3): Dropout(p=0.35000000000000003, inplace=False)
    (4): Linear(in_features=300, out_features=300, bias=True)
    (5): ReLU()
    (6): Dropout(p=0.35000000000000003, inplace=False)
    (7): Linear(in_features=300, out_features=1, bias=True)
  )
)
MoleculeModel(
  (encoder): MPN(
    (encoder): MPNEncoder(
      (dropout_layer): Dropout(p=0.35000000000000003, inplace=False)
      (act_func): ReLU()
      (W_i): Linear(in_features=147, out_features=1100, bias=False)
      (W_h): Linear(in_features=1100, out_features=1100, bias=False)
      (W_o): Linear(in_features=1233, out_features=1100, bias=True)
    )
  )
  (ffn): Sequential(
    (0): Dropout(p=0.35000000000000003, inplace=False)
    (1): Linear(in_features=1143, out_features=300, bias=True)
    (2): ReLU()
    (3): Dropout(p=0.35000000000000003, inplace=False)
    (4): Linear(in_features=300, out_features=300, bias=True)
    (5): ReLU()
    (6): Dropout(p=0.35000000000000003, inplace=False)
    (7): Linear(in_features=300, out_features=1, bias=True)
  )
)
Number of parameters = 3,162,901
Number of parameters = 3,162,901
Epoch 0
Epoch 0
Validation rmse = 3.053154
Validation rmse = 3.053154
Epoch 1
Epoch 1
Validation rmse = 3.510701
Validation rmse = 3.510701
Epoch 2
Epoch 2
Validation rmse = 3.310196
Validation rmse = 3.310196
Epoch 3
Epoch 3
Validation rmse = 3.093909
Validation rmse = 3.093909
Epoch 4
…
 'undirected': False,
 'use_compound_names': False,
 'use_input_features': True,
 'val_fold_index': None,
 'warmup_epochs': 2.0}
Loading data
Loading data
Number of tasks = 1
Number of tasks = 1
Splitting data with seed 5
Splitting data with seed 5
Total size = 84 | train size = 84 | val size = 44 | test size = 56
Total size = 84 | train size = 84 | val size = 44 | test size = 56
Fitting scaler
Fitting scaler
Building model 0
Building model 0
MoleculeModel(
  (encoder): MPN(
    (encoder): MPNEncoder(
      (dropout_layer): Dropout(p=0.35000000000000003, inplace=False)
      (act_func): ReLU()
      (W_i): Linear(in_features=147, out_features=1300, bias=False)
      (W_h): Linear(in_features=1300, out_features=1300, bias=False)
      (W_o): Linear(in_features=1433, out_features=1300, bias=True)
    )
  )
  (ffn): Sequential(
    (0): Dropout(p=0.35000000000000003, inplace=False)
    (1): Linear(in_features=1343, out_features=300, bias=True)
    (2): ReLU()
    (3): Dropout(p=0.35000000000000003, inplace=False)
    (4): Linear(in_features=300, out_features=1, bias=True)
  )
)
MoleculeModel(
  (encoder): MPN(
    (encoder): MPNEncoder(
      (dropout_layer): Dropout(p=0.35000000000000003, inplace=False)
      (act_func): ReLU()
      (W_i): Linear(in_features=147, out_features=1300, bias=False)
      (W_h): Linear(in_features=1300, out_features=1300, bias=False)
      (W_o): Linear(in_features=1433, out_features=1300, bias=True)
    )
  )
  (ffn): Sequential(
    (0): Dropout(p=0.35000000000000003, inplace=False)
    (1): Linear(in_features=1343, out_features=300, bias=True)
    (2): ReLU()
    (3): Dropout(p=0.35000000000000003, inplace=False)
    (4): Linear(in_features=300, out_features=1, bias=True)
  )
)
Number of parameters = 4,148,801
Number of parameters = 4,148,801
Epoch 0
Epoch 0
Validation rmse = 3.087882
Validation rmse = 3.087882
Epoch 1
Epoch 1
Validation rmse = 4.056932
Validation rmse = 4.056932
Epoch 2
Epoch 2
Validation rmse = 3.343715
Validation rmse = 3.343715
Epoch 3
Epoch 3
Validation rmse = 3.160550
Validation rmse = 3.160550
Epoch 4
…
