…
 'separate_val_path': 'Data/Multitask_data/All_datasets/Splits/RM_test/valid.csv',
 'show_individual_scores': False,
 'split_sizes': [0.675, 0.075, 0.25],
 'split_type': 'random',
 'test': False,
 'test_fold_index': None,
 'undirected': False,
 'use_compound_names': False,
 'use_input_features': True,
 'val_fold_index': None,
 'warmup_epochs': 2.0}
Loading data
Number of tasks = 3
Splitting data with seed 5
Total size = 1,469 | train size = 1,469 | val size = 368 | test size = 1,171
Fitting scaler
Building model 0
MoleculeModel(
  (encoder): MPN(
    (encoder): MPNEncoder(
      (dropout_layer): Dropout(p=0.0, inplace=False)
      (act_func): ReLU()
      (W_i): Linear(in_features=147, out_features=300, bias=False)
      (W_h): Linear(in_features=300, out_features=300, bias=False)
      (W_o): Linear(in_features=433, out_features=300, bias=True)
    )
  )
  (ffn): Sequential(
    (0): Dropout(p=0.0, inplace=False)
    (1): Linear(in_features=310, out_features=300, bias=True)
    (2): ReLU()
    (3): Dropout(p=0.0, inplace=False)
    (4): Linear(in_features=300, out_features=300, bias=True)
    (5): ReLU()
    (6): Dropout(p=0.0, inplace=False)
    (7): Linear(in_features=300, out_features=3, bias=True)
  )
)
Number of parameters = 448,803
Epoch 0
Loss = 1.9750e-02, PNorm = 38.3287, GNorm = 4.1072, lr_0 = 2.7069e-04
Loss = 1.9893e-02, PNorm = 38.3373, GNorm = 0.9070, lr_0 = 4.2586e-04
Validation rmse = 0.535101
Epoch 1
Loss = 1.2553e-02, PNorm = 38.3547, GNorm = 2.9201, lr_0 = 5.8103e-04
Loss = 1.5866e-02, PNorm = 38.3788, GNorm = 0.8783, lr_0 = 7.3621e-04
…
 'separate_val_path': 'Data/Multitask_data/All_datasets/Splits/RM_and_whitehead_test/valid.csv',
 'show_individual_scores': False,
 'split_sizes': [0.675, 0.075, 0.25],
 'split_type': 'random',
 'test': False,
 'test_fold_index': None,
 'undirected': False,
 'use_compound_names': False,
 'use_input_features': True,
 'val_fold_index': None,
 'warmup_epochs': 2.0}
Loading data
Number of tasks = 1
Splitting data with seed 5
Total size = 451 | train size = 451 | val size = 113 | test size = 2,444
Fitting scaler
Building model 0
MoleculeModel(
  (encoder): MPN(
    (encoder): MPNEncoder(
      (dropout_layer): Dropout(p=0.0, inplace=False)
      (act_func): ReLU()
      (W_i): Linear(in_features=147, out_features=300, bias=False)
      (W_h): Linear(in_features=300, out_features=300, bias=False)
      (W_o): Linear(in_features=433, out_features=300, bias=True)
    )
  )
  (ffn): Sequential(
    (0): Dropout(p=0.0, inplace=False)
    (1): Linear(in_features=310, out_features=300, bias=True)
    (2): ReLU()
    (3): Dropout(p=0.0, inplace=False)
    (4): Linear(in_features=300, out_features=300, bias=True)
    (5): ReLU()
    (6): Dropout(p=0.0, inplace=False)
    (7): Linear(in_features=300, out_features=1, bias=True)
  )
)
Number of parameters = 448,201
Epoch 0
Validation rmse = 1.105953
Epoch 1
Loss = 1.6192e-02, PNorm = 38.1769, GNorm = 2.7573, lr_0 = 6.5000e-04
Validation rmse = 0.955208
Epoch 2
Loss = 1.4363e-02, PNorm = 38.2085, GNorm = 3.8417, lr_0 = 9.8414e-04
Validation rmse = 0.887259
Epoch 3
Loss = 1.1149e-02, PNorm = 38.2649, GNorm = 5.0571, lr_0 = 9.3306e-04
…
