…
 'undirected': False,
 'use_compound_names': False,
 'use_input_features': True,
 'val_fold_index': None,
 'warmup_epochs': 2.0}
Loading data
Loading data
Number of tasks = 1
Number of tasks = 1
Splitting data with seed 5
Splitting data with seed 5
Total size = 8,472 | train size = 8,472 | val size = 381 | test size = 373
Total size = 8,472 | train size = 8,472 | val size = 381 | test size = 373
Fitting scaler
Fitting scaler
Building model 0
Building model 0
MoleculeModel(
  (encoder): MPN(
    (encoder): MPNEncoder(
      (dropout_layer): Dropout(p=0.05, inplace=False)
      (act_func): ReLU()
      (W_i): Linear(in_features=147, out_features=2100, bias=False)
      (W_h): Linear(in_features=2100, out_features=2100, bias=False)
      (W_o): Linear(in_features=2233, out_features=2100, bias=True)
    )
  )
  (ffn): Sequential(
    (0): Dropout(p=0.05, inplace=False)
    (1): Linear(in_features=2126, out_features=300, bias=True)
    (2): ReLU()
    (3): Dropout(p=0.05, inplace=False)
    (4): Linear(in_features=300, out_features=1, bias=True)
  )
)
MoleculeModel(
  (encoder): MPN(
    (encoder): MPNEncoder(
      (dropout_layer): Dropout(p=0.05, inplace=False)
      (act_func): ReLU()
      (W_i): Linear(in_features=147, out_features=2100, bias=False)
      (W_h): Linear(in_features=2100, out_features=2100, bias=False)
      (W_o): Linear(in_features=2233, out_features=2100, bias=True)
    )
  )
  (ffn): Sequential(
    (0): Dropout(p=0.05, inplace=False)
    (1): Linear(in_features=2126, out_features=300, bias=True)
    (2): ReLU()
    (3): Dropout(p=0.05, inplace=False)
    (4): Linear(in_features=300, out_features=1, bias=True)
  )
)
Number of parameters = 10,048,501
Number of parameters = 10,048,501
Epoch 0
Epoch 0
Fold 0
Fold 0
{'activation': 'ReLU',
 'atom_messages': False,
 'batch_size': 50,
 'bias': False,
 'checkpoint_dir': None,
 'checkpoint_path': None,
 'checkpoint_paths': None,
 'config_path': None,
 'config_save_path': 'Data/Multitask_data/All_datasets/Splits/Ubermodel_split_hyperopt/hyperopt/optimized_configs',
…
 'undirected': False,
 'use_compound_names': False,
 'use_input_features': True,
 'val_fold_index': None,
 'warmup_epochs': 2.0}
Loading data
Loading data
Number of tasks = 1
Number of tasks = 1
Splitting data with seed 5
Splitting data with seed 5
Total size = 8,474 | train size = 8,474 | val size = 375 | test size = 377
Total size = 8,474 | train size = 8,474 | val size = 375 | test size = 377
Fitting scaler
Fitting scaler
Building model 0
Building model 0
MoleculeModel(
  (encoder): MPN(
    (encoder): MPNEncoder(
      (dropout_layer): Dropout(p=0.4, inplace=False)
      (act_func): ReLU()
      (W_i): Linear(in_features=147, out_features=500, bias=False)
      (W_h): Linear(in_features=500, out_features=500, bias=False)
      (W_o): Linear(in_features=633, out_features=500, bias=True)
    )
  )
  (ffn): Sequential(
    (0): Dropout(p=0.4, inplace=False)
    (1): Linear(in_features=526, out_features=300, bias=True)
    (2): ReLU()
    (3): Dropout(p=0.4, inplace=False)
    (4): Linear(in_features=300, out_features=1, bias=True)
  )
)
MoleculeModel(
  (encoder): MPN(
    (encoder): MPNEncoder(
      (dropout_layer): Dropout(p=0.4, inplace=False)
      (act_func): ReLU()
      (W_i): Linear(in_features=147, out_features=500, bias=False)
      (W_h): Linear(in_features=500, out_features=500, bias=False)
      (W_o): Linear(in_features=633, out_features=500, bias=True)
    )
  )
  (ffn): Sequential(
    (0): Dropout(p=0.4, inplace=False)
    (1): Linear(in_features=526, out_features=300, bias=True)
    (2): ReLU()
    (3): Dropout(p=0.4, inplace=False)
    (4): Linear(in_features=300, out_features=1, bias=True)
  )
)
Number of parameters = 798,901
Number of parameters = 798,901
Epoch 0
Epoch 0
Loss = 2.4422e-02, PNorm = 40.8593, GNorm = 3.7045, lr_0 = 1.2929e-04
Loss = 2.4422e-02, PNorm = 40.8593, GNorm = 3.7045, lr_0 = 1.2929e-04
Loss = 1.8676e-02, PNorm = 40.8602, GNorm = 5.5667, lr_0 = 1.5592e-04
Loss = 1.8676e-02, PNorm = 40.8602, GNorm = 5.5667, lr_0 = 1.5592e-04
…
 'undirected': False,
 'use_compound_names': False,
 'use_input_features': True,
 'val_fold_index': None,
 'warmup_epochs': 2.0}
Loading data
Loading data
Number of tasks = 1
Number of tasks = 1
Splitting data with seed 5
Splitting data with seed 5
Total size = 8,463 | train size = 8,463 | val size = 438 | test size = 325
Total size = 8,463 | train size = 8,463 | val size = 438 | test size = 325
Fitting scaler
Fitting scaler
Building model 0
Building model 0
MoleculeModel(
  (encoder): MPN(
    (encoder): MPNEncoder(
      (dropout_layer): Dropout(p=0.25, inplace=False)
      (act_func): ReLU()
      (W_i): Linear(in_features=147, out_features=400, bias=False)
      (W_h): Linear(in_features=400, out_features=400, bias=False)
      (W_o): Linear(in_features=533, out_features=400, bias=True)
    )
  )
  (ffn): Sequential(
    (0): Dropout(p=0.25, inplace=False)
    (1): Linear(in_features=426, out_features=1, bias=True)
  )
)
MoleculeModel(
  (encoder): MPN(
    (encoder): MPNEncoder(
      (dropout_layer): Dropout(p=0.25, inplace=False)
      (act_func): ReLU()
      (W_i): Linear(in_features=147, out_features=400, bias=False)
      (W_h): Linear(in_features=400, out_features=400, bias=False)
      (W_o): Linear(in_features=533, out_features=400, bias=True)
    )
  )
  (ffn): Sequential(
    (0): Dropout(p=0.25, inplace=False)
    (1): Linear(in_features=426, out_features=1, bias=True)
  )
)
Number of parameters = 432,827
Number of parameters = 432,827
Epoch 0
Epoch 0
Loss = 2.6153e-02, PNorm = 32.8364, GNorm = 2.5366, lr_0 = 1.2929e-04
Loss = 2.6153e-02, PNorm = 32.8364, GNorm = 2.5366, lr_0 = 1.2929e-04
