…
 'separate_val_path': 'Data/Multitask_data/All_datasets/Splits/IR_test/valid.csv',
 'show_individual_scores': False,
 'split_sizes': [0.675, 0.075, 0.25],
 'split_type': 'random',
 'test': False,
 'test_fold_index': None,
 'undirected': False,
 'use_compound_names': False,
 'use_input_features': True,
 'val_fold_index': None,
 'warmup_epochs': 2.0}
Loading data
Number of tasks = 3
Splitting data with seed 5
Total size = 1,955 | train size = 1,955 | val size = 489 | test size = 564
Fitting scaler
Building model 0
MoleculeModel(
  (encoder): MPN(
    (encoder): MPNEncoder(
      (dropout_layer): Dropout(p=0.0, inplace=False)
      (act_func): ReLU()
      (W_i): Linear(in_features=147, out_features=300, bias=False)
      (W_h): Linear(in_features=300, out_features=300, bias=False)
      (W_o): Linear(in_features=433, out_features=300, bias=True)
    )
  )
  (ffn): Sequential(
    (0): Dropout(p=0.0, inplace=False)
    (1): Linear(in_features=305, out_features=300, bias=True)
    (2): ReLU()
    (3): Dropout(p=0.0, inplace=False)
    (4): Linear(in_features=300, out_features=3, bias=True)
  )
)
Number of parameters = 357,003
Epoch 0
Fold 0
{'activation': 'ReLU',
 'atom_messages': False,
 'batch_size': 50,
 'bias': False,
 'checkpoint_dir': None,
 'checkpoint_path': None,
 'checkpoint_paths': None,
 'config_path': None,
 'crossval_index_dir': None,
 'crossval_index_file': None,
 'cuda': False,
 'data_path': 'Data/Multitask_data/All_datasets/Splits/IR_test/train.csv',
…
 'separate_val_path': 'Data/Multitask_data/All_datasets/Splits/IR_test/valid.csv',
 'show_individual_scores': False,
 'split_sizes': [0.675, 0.075, 0.25],
 'split_type': 'random',
 'test': False,
 'test_fold_index': None,
 'undirected': False,
 'use_compound_names': False,
 'use_input_features': True,
 'val_fold_index': None,
 'warmup_epochs': 2.0}
Loading data
Number of tasks = 3
Splitting data with seed 5
Total size = 1,955 | train size = 1,955 | val size = 489 | test size = 564
Fitting scaler
Building model 0
MoleculeModel(
  (encoder): MPN(
    (encoder): MPNEncoder(
      (dropout_layer): Dropout(p=0.0, inplace=False)
      (act_func): ReLU()
      (W_i): Linear(in_features=147, out_features=300, bias=False)
      (W_h): Linear(in_features=300, out_features=300, bias=False)
      (W_o): Linear(in_features=433, out_features=300, bias=True)
    )
  )
  (ffn): Sequential(
    (0): Dropout(p=0.0, inplace=False)
    (1): Linear(in_features=310, out_features=300, bias=True)
    (2): ReLU()
    (3): Dropout(p=0.0, inplace=False)
    (4): Linear(in_features=300, out_features=3, bias=True)
  )
)
Number of parameters = 358,503
Epoch 0
Loss = 1.8811e-02, PNorm = 34.1352, GNorm = 2.7352, lr_0 = 2.2692e-04
Loss = 1.8816e-02, PNorm = 34.1435, GNorm = 2.8084, lr_0 = 3.4231e-04
Loss = 1.7246e-02, PNorm = 34.1556, GNorm = 2.9276, lr_0 = 4.5769e-04
Validation rmse = 0.513366
Epoch 1
Loss = 2.1834e-02, PNorm = 34.1699, GNorm = 3.1893, lr_0 = 5.7308e-04
…
 'separate_val_path': 'Data/Multitask_data/All_datasets/Splits/IR_test/valid.csv',
 'show_individual_scores': False,
 'split_sizes': [0.675, 0.075, 0.25],
 'split_type': 'random',
 'test': False,
 'test_fold_index': None,
 'undirected': False,
 'use_compound_names': False,
 'use_input_features': True,
 'val_fold_index': None,
 'warmup_epochs': 2.0}
Loading data
Number of tasks = 3
Splitting data with seed 5
Total size = 1,955 | train size = 1,955 | val size = 489 | test size = 564
Fitting scaler
Building model 0
MoleculeModel(
  (encoder): MPN(
    (encoder): MPNEncoder(
      (dropout_layer): Dropout(p=0.0, inplace=False)
      (act_func): ReLU()
      (W_i): Linear(in_features=147, out_features=300, bias=False)
      (W_h): Linear(in_features=300, out_features=300, bias=False)
      (W_o): Linear(in_features=433, out_features=300, bias=True)
    )
  )
  (ffn): Sequential(
    (0): Dropout(p=0.0, inplace=False)
    (1): Linear(in_features=310, out_features=300, bias=True)
    (2): ReLU()
    (3): Dropout(p=0.0, inplace=False)
    (4): Linear(in_features=300, out_features=300, bias=True)
    (5): ReLU()
    (6): Dropout(p=0.0, inplace=False)
    (7): Linear(in_features=300, out_features=3, bias=True)
  )
)
Number of parameters = 448,803
Epoch 0
Loss = 2.0333e-02, PNorm = 38.2508, GNorm = 2.5918, lr_0 = 2.2692e-04
Loss = 1.6038e-02, PNorm = 38.2599, GNorm = 2.2965, lr_0 = 3.4231e-04
Loss = 1.6083e-02, PNorm = 38.2730, GNorm = 2.5072, lr_0 = 4.5769e-04
Validation rmse = 0.485526
Epoch 1
Loss = 1.9044e-02, PNorm = 38.2866, GNorm = 0.8902, lr_0 = 5.7308e-04
…
 'separate_val_path': 'Data/Multitask_data/All_datasets/Splits/IR_and_whitehead_test/valid.csv',
 'show_individual_scores': False,
 'split_sizes': [0.675, 0.075, 0.25],
 'split_type': 'random',
 'test': False,
 'test_fold_index': None,
 'undirected': False,
 'use_compound_names': False,
 'use_input_features': True,
 'val_fold_index': None,
 'warmup_epochs': 2.0}
Loading data
Number of tasks = 1
Splitting data with seed 5
Total size = 936 | train size = 936 | val size = 235 | test size = 1,837
Fitting scaler
Building model 0
MoleculeModel(
  (encoder): MPN(
    (encoder): MPNEncoder(
      (dropout_layer): Dropout(p=0.0, inplace=False)
      (act_func): ReLU()
      (W_i): Linear(in_features=147, out_features=300, bias=False)
      (W_h): Linear(in_features=300, out_features=300, bias=False)
      (W_o): Linear(in_features=433, out_features=300, bias=True)
    )
  )
  (ffn): Sequential(
    (0): Dropout(p=0.0, inplace=False)
    (1): Linear(in_features=310, out_features=300, bias=True)
    (2): ReLU()
    (3): Dropout(p=0.0, inplace=False)
    (4): Linear(in_features=300, out_features=300, bias=True)
    (5): ReLU()
    (6): Dropout(p=0.0, inplace=False)
    (7): Linear(in_features=300, out_features=1, bias=True)
  )
)
Number of parameters = 448,201
Epoch 0
Loss = 1.8903e-02, PNorm = 38.1960, GNorm = 2.1769, lr_0 = 3.7500e-04
Validation rmse = 0.984104
Epoch 1
Loss = 1.3219e-02, PNorm = 38.2167, GNorm = 0.8012, lr_0 = 6.2500e-04
Loss = 1.2793e-02, PNorm = 38.2557, GNorm = 2.2762, lr_0 = 8.7500e-04
Validation rmse = 0.863686
Epoch 2
Loss = 1.3159e-02, PNorm = 38.3060, GNorm = 4.0270, lr_0 = 9.8676e-04
…
